…
2018-04-13 14:46:58.673267: I tensorflow/core/common_runtime/gpu/gpu_device.cc:1120] Creating TensorFlow device (/device:GPU:0) -> (device: 0, name: GeForce GTX 1080 Ti, pci bus id: 0000:03:00.0, compute capability: 6.1)
Loading VGG16 Weights ...
Adding Average Pooling Layer and Softmax Output Layer ...
(None, 8, 8, 512)
__________________________________________________________________________________________________
Layer (type)                    Output Shape         Param #     Connected to                     
==================================================================================================
input_1 (InputLayer)            (None, 256, 256, 3)  0                                            
__________________________________________________________________________________________________
block1_conv1 (Conv2D)           (None, 256, 256, 64) 1792        input_1[0][0]                    
__________________________________________________________________________________________________
block1_conv2 (Conv2D)           (None, 256, 256, 64) 36928       block1_conv1[0][0]               
__________________________________________________________________________________________________
block1_pool (MaxPooling2D)      (None, 128, 128, 64) 0           block1_conv2[0][0]               
__________________________________________________________________________________________________
block2_conv1 (Conv2D)           (None, 128, 128, 128 73856       block1_pool[0][0]                
__________________________________________________________________________________________________
block2_conv2 (Conv2D)           (None, 128, 128, 128 147584      block2_conv1[0][0]               
__________________________________________________________________________________________________
block2_pool (MaxPooling2D)      (None, 64, 64, 128)  0           block2_conv2[0][0]               
__________________________________________________________________________________________________
block3_conv1 (Conv2D)           (None, 64, 64, 256)  295168      block2_pool[0][0]                
__________________________________________________________________________________________________
block3_conv2 (Conv2D)           (None, 64, 64, 256)  590080      block3_conv1[0][0]               
__________________________________________________________________________________________________
block3_conv3 (Conv2D)           (None, 64, 64, 256)  590080      block3_conv2[0][0]               
__________________________________________________________________________________________________
block3_pool (MaxPooling2D)      (None, 32, 32, 256)  0           block3_conv3[0][0]               
__________________________________________________________________________________________________
block4_conv1 (Conv2D)           (None, 32, 32, 512)  1180160     block3_pool[0][0]                
__________________________________________________________________________________________________
block4_conv2 (Conv2D)           (None, 32, 32, 512)  2359808     block4_conv1[0][0]               
__________________________________________________________________________________________________
block4_conv3 (Conv2D)           (None, 32, 32, 512)  2359808     block4_conv2[0][0]               
__________________________________________________________________________________________________
block4_pool (MaxPooling2D)      (None, 16, 16, 512)  0           block4_conv3[0][0]               
__________________________________________________________________________________________________
block5_conv1 (Conv2D)           (None, 16, 16, 512)  2359808     block4_pool[0][0]                
__________________________________________________________________________________________________
block5_conv2 (Conv2D)           (None, 16, 16, 512)  2359808     block5_conv1[0][0]               
__________________________________________________________________________________________________
block5_conv3 (Conv2D)           (None, 16, 16, 512)  2359808     block5_conv2[0][0]               
__________________________________________________________________________________________________
block5_pool (MaxPooling2D)      (None, 8, 8, 512)    0           block5_conv3[0][0]               
__________________________________________________________________________________________________
conv2d_1 (Conv2D)               (None, 8, 8, 512)    262656      block5_pool[0][0]                
__________________________________________________________________________________________________
lambda_1 (Lambda)               (None, 8, 512, 8)    0           conv2d_1[0][0]                   
__________________________________________________________________________________________________
reshape_1 (Reshape)             (None, 64, 512)      0           conv2d_1[0][0]                   
__________________________________________________________________________________________________
reshape_2 (Reshape)             (None, 64, 512)      0           lambda_1[0][0]                   
__________________________________________________________________________________________________
bidirectional_1 (Bidirectional) (None, 64, 1024)     4202496     reshape_1[0][0]                  
__________________________________________________________________________________________________
bidirectional_2 (Bidirectional) (None, 64, 1024)     4202496     reshape_2[0][0]                  
__________________________________________________________________________________________________
merge_1 (Merge)                 (None, 64, 2048)     0           bidirectional_1[0][0]            
                                                                 bidirectional_2[0][0]            
__________________________________________________________________________________________________
reshape_3 (Reshape)             (None, 32, 8, 512)   0           merge_1[0][0]                    
__________________________________________________________________________________________________
conv2d_2 (Conv2D)               (None, 32, 8, 512)   262656      reshape_3[0][0]                  
__________________________________________________________________________________________________
flatten (Flatten)               (None, 131072)       0           conv2d_2[0][0]                   
__________________________________________________________________________________________________
predictions (Dense)             (None, 4)            524292      flatten[0][0]                    
==================================================================================================
Total params: 24,169,284
Trainable params: 24,169,284
Non-trainable params: 0
__________________________________________________________________________________________________
Found 191 images belonging to 4 classes.
Found 51 images belonging to 4 classes.
[2018-04-13 14:47:04.896818] Creating and compiling model...
…
